…
    "test_images = test_images.reshape((10000, 28, 28, 1)).astype('float32') / 255\n",
    "\n",
    "train_labels = to_categorical(train_labels)\n",
    "test_labels = to_categorical(test_labels)"
   ]
  },
  {
   "cell_type": "code",
   "execution_count": 9,
   "metadata": {},
   "outputs": [
    {
     "name": "stdout",
     "output_type": "stream",
     "text": [
      "Model: \"sequential_4\"\n",
      "_________________________________________________________________\n",
      "Layer (type)                 Output Shape              Param #   \n",
      "=================================================================\n",
      "conv2d_10 (Conv2D)           (None, 26, 26, 32)        320       \n",
      "_________________________________________________________________\n",
      "max_pooling2d_7 (MaxPooling2 (None, 13, 13, 32)        0         \n",
      "_________________________________________________________________\n",
      "conv2d_11 (Conv2D)           (None, 11, 11, 64)        18496     \n",
      "_________________________________________________________________\n",
      "max_pooling2d_8 (MaxPooling2 (None, 5, 5, 64)          0         \n",
      "_________________________________________________________________\n",
      "conv2d_12 (Conv2D)           (None, 3, 3, 64)          36928     \n",
      "_________________________________________________________________\n",
      "flatten_4 (Flatten)          (None, 576)               0         \n",
      "_________________________________________________________________\n",
      "dense_7 (Dense)              (None, 64)                36928     \n",
      "_________________________________________________________________\n",
      "dense_8 (Dense)              (None, 10)                650       \n",
      "=================================================================\n",
      "Total params: 93,322\n",
      "Trainable params: 93,322\n",
      "Non-trainable params: 0\n",
      "_________________________________________________________________\n"
     ]
    }
   ],
   "source": [
    "model = models.Sequential([\n",
    "    # Configure a convnet with 3 layers of convolutions and max pooling.\n",
…
